…
  File "/home/dahala/miniconda3/envs/mlashok/lib/python3.10/site-packages/wandb/sdk/internal/system/assets/cpu.py", line 166, in start
    self.metrics_monitor.start()
  File "/home/dahala/miniconda3/envs/mlashok/lib/python3.10/site-packages/wandb/sdk/internal/system/assets/interfaces.py", line 168, in start
    logger.info(f"Started {self._process.name}")
AttributeError: 'NoneType' object has no attribute 'name'
Model: "model_2"
_________________________________________________________________
 Layer (type)                Output Shape              Param #
=================================================================
 input_3 (InputLayer)        [(None, 29)]              0
 AR_DN_0 (Dense)             (None, 128)               3840
 AR_DN_1 (Dense)             (None, 128)               16512
 batch_normalization_128 (Ba  (None, 128)              512
 tchNormalization)
 dropout_128 (Dropout)       (None, 128)               0
 AR_DN_2 (Dense)             (None, 128)               16512
 batch_normalization_129 (Ba  (None, 128)              512
 tchNormalization)
 dropout_129 (Dropout)       (None, 128)               0
 AR_DN_3 (Dense)             (None, 128)               16512
 batch_normalization_130 (Ba  (None, 128)              512
 tchNormalization)
 dropout_130 (Dropout)       (None, 128)               0
 AR_DN_4 (Dense)             (None, 128)               16512
 batch_normalization_131 (Ba  (None, 128)              512
 tchNormalization)
 dropout_131 (Dropout)       (None, 128)               0
 AR_DN_5 (Dense)             (None, 128)               16512
 batch_normalization_132 (Ba  (None, 128)              512
 tchNormalization)
 dropout_132 (Dropout)       (None, 128)               0
 AR_DN_6 (Dense)             (None, 128)               16512
 batch_normalization_133 (Ba  (None, 128)              512
 tchNormalization)
 dropout_133 (Dropout)       (None, 128)               0
 AR_DN_7 (Dense)             (None, 128)               16512
 batch_normalization_134 (Ba  (None, 128)              512
 tchNormalization)
 dropout_134 (Dropout)       (None, 128)               0
 AR_DN_8 (Dense)             (None, 128)               16512
 batch_normalization_135 (Ba  (None, 128)              512
 tchNormalization)
 dropout_135 (Dropout)       (None, 128)               0
 AR_DN_9 (Dense)             (None, 128)               16512
 batch_normalization_136 (Ba  (None, 128)              512
 tchNormalization)
 dropout_136 (Dropout)       (None, 128)               0
 AR_DN_10 (Dense)            (None, 128)               16512
 batch_normalization_137 (Ba  (None, 128)              512
 tchNormalization)
 dropout_137 (Dropout)       (None, 128)               0
 AR_DN_11 (Dense)            (None, 128)               16512
 batch_normalization_138 (Ba  (None, 128)              512
 tchNormalization)
 dropout_138 (Dropout)       (None, 128)               0
 AR_DN_12 (Dense)            (None, 128)               16512
 batch_normalization_139 (Ba  (None, 128)              512
 tchNormalization)
 dropout_139 (Dropout)       (None, 128)               0
 AR_DN_13 (Dense)            (None, 128)               16512
 batch_normalization_140 (Ba  (None, 128)              512
 tchNormalization)
 dropout_140 (Dropout)       (None, 128)               0
 AR_DN_14 (Dense)            (None, 128)               16512
 batch_normalization_141 (Ba  (None, 128)              512
 tchNormalization)
 dropout_141 (Dropout)       (None, 128)               0
 AR_DN_15 (Dense)            (None, 128)               16512
 batch_normalization_142 (Ba  (None, 128)              512
 tchNormalization)
 dropout_142 (Dropout)       (None, 128)               0
 AR_DN_16 (Dense)            (None, 128)               16512
 batch_normalization_143 (Ba  (None, 128)              512
 tchNormalization)
 dropout_143 (Dropout)       (None, 128)               0
 AR_DN_17 (Dense)            (None, 128)               16512
 batch_normalization_144 (Ba  (None, 128)              512
 tchNormalization)
 dropout_144 (Dropout)       (None, 128)               0
 AR_DN_18 (Dense)            (None, 128)               16512
 batch_normalization_145 (Ba  (None, 128)              512
 tchNormalization)
 dropout_145 (Dropout)       (None, 128)               0
 AR_DN_19 (Dense)            (None, 128)               16512
 batch_normalization_146 (Ba  (None, 128)              512
 tchNormalization)
 dropout_146 (Dropout)       (None, 128)               0
 AR_DN_20 (Dense)            (None, 128)               16512
 batch_normalization_147 (Ba  (None, 128)              512
 tchNormalization)
 dropout_147 (Dropout)       (None, 128)               0
 AR_DN_21 (Dense)            (None, 128)               16512
 batch_normalization_148 (Ba  (None, 128)              512
 tchNormalization)
 dropout_148 (Dropout)       (None, 128)               0
 AR_DN_22 (Dense)            (None, 128)               16512
 batch_normalization_149 (Ba  (None, 128)              512
 tchNormalization)
 dropout_149 (Dropout)       (None, 128)               0
 AR_DN_23 (Dense)            (None, 128)               16512
 batch_normalization_150 (Ba  (None, 128)              512
 tchNormalization)
 dropout_150 (Dropout)       (None, 128)               0
 AR_DN_24 (Dense)            (None, 128)               16512
 batch_normalization_151 (Ba  (None, 128)              512
 tchNormalization)
 dropout_151 (Dropout)       (None, 128)               0
 AR_DN_25 (Dense)            (None, 128)               16512
 batch_normalization_152 (Ba  (None, 128)              512
 tchNormalization)
 dropout_152 (Dropout)       (None, 128)               0
 AR_DN_26 (Dense)            (None, 128)               16512
 batch_normalization_153 (Ba  (None, 128)              512
 tchNormalization)
 dropout_153 (Dropout)       (None, 128)               0
 AR_DN_27 (Dense)            (None, 128)               16512
 batch_normalization_154 (Ba  (None, 128)              512
 tchNormalization)
 dropout_154 (Dropout)       (None, 128)               0
 AR_DN_28 (Dense)            (None, 128)               16512
 batch_normalization_155 (Ba  (None, 128)              512
 tchNormalization)
 dropout_155 (Dropout)       (None, 128)               0
 AR_DN_29 (Dense)            (None, 128)               16512
 batch_normalization_156 (Ba  (None, 128)              512
 tchNormalization)
 dropout_156 (Dropout)       (None, 128)               0
 AR_DN_30 (Dense)            (None, 128)               16512
 batch_normalization_157 (Ba  (None, 128)              512
 tchNormalization)
 dropout_157 (Dropout)       (None, 128)               0
 AR_DN_31 (Dense)            (None, 128)               16512
 batch_normalization_158 (Ba  (None, 128)              512
 tchNormalization)
 dropout_158 (Dropout)       (None, 128)               0
 AR_DN_32 (Dense)            (None, 128)               16512
 batch_normalization_159 (Ba  (None, 128)              512
 tchNormalization)
 dropout_159 (Dropout)       (None, 128)               0
 AR_DN_33 (Dense)            (None, 128)               16512
 batch_normalization_160 (Ba  (None, 128)              512
 tchNormalization)
 dropout_160 (Dropout)       (None, 128)               0
 AR_DN_34 (Dense)            (None, 128)               16512
 batch_normalization_161 (Ba  (None, 128)              512
 tchNormalization)
 dropout_161 (Dropout)       (None, 128)               0
 AR_DN_35 (Dense)            (None, 128)               16512
 batch_normalization_162 (Ba  (None, 128)              512
 tchNormalization)
 dropout_162 (Dropout)       (None, 128)               0
 AR_DN_36 (Dense)            (None, 128)               16512
 batch_normalization_163 (Ba  (None, 128)              512
 tchNormalization)
 dropout_163 (Dropout)       (None, 128)               0
 AR_DN_37 (Dense)            (None, 128)               16512
 batch_normalization_164 (Ba  (None, 128)              512
 tchNormalization)
 dropout_164 (Dropout)       (None, 128)               0
 AR_DN_38 (Dense)            (None, 128)               16512
 batch_normalization_165 (Ba  (None, 128)              512
 tchNormalization)
 dropout_165 (Dropout)       (None, 128)               0
 AR_DN_39 (Dense)            (None, 128)               16512
 batch_normalization_166 (Ba  (None, 128)              512
 tchNormalization)
 dropout_166 (Dropout)       (None, 128)               0
 AR_DN_40 (Dense)            (None, 128)               16512
 batch_normalization_167 (Ba  (None, 128)              512
 tchNormalization)
 dropout_167 (Dropout)       (None, 128)               0
 AR_DN_41 (Dense)            (None, 128)               16512
 batch_normalization_168 (Ba  (None, 128)              512
 tchNormalization)
 dropout_168 (Dropout)       (None, 128)               0
 AR_DN_42 (Dense)            (None, 128)               16512
 batch_normalization_169 (Ba  (None, 128)              512
 tchNormalization)
 dropout_169 (Dropout)       (None, 128)               0
 AR_DN_43 (Dense)            (None, 128)               16512
 batch_normalization_170 (Ba  (None, 128)              512
 tchNormalization)
 dropout_170 (Dropout)       (None, 128)               0
 AR_DN_44 (Dense)            (None, 128)               16512
 batch_normalization_171 (Ba  (None, 128)              512
 tchNormalization)
 dropout_171 (Dropout)       (None, 128)               0
 AR_DN_45 (Dense)            (None, 128)               16512
 batch_normalization_172 (Ba  (None, 128)              512
 tchNormalization)
 dropout_172 (Dropout)       (None, 128)               0
 AR_DN_46 (Dense)            (None, 128)               16512
 batch_normalization_173 (Ba  (None, 128)              512
 tchNormalization)
 dropout_173 (Dropout)       (None, 128)               0
 AR_DN_47 (Dense)            (None, 128)               16512
 batch_normalization_174 (Ba  (None, 128)              512
 tchNormalization)
 dropout_174 (Dropout)       (None, 128)               0
 AR_DN_48 (Dense)            (None, 128)               16512
 batch_normalization_175 (Ba  (None, 128)              512
 tchNormalization)
 dropout_175 (Dropout)       (None, 128)               0
 AR_DN_49 (Dense)            (None, 128)               16512
 batch_normalization_176 (Ba  (None, 128)              512
 tchNormalization)
 dropout_176 (Dropout)       (None, 128)               0
 AR_DN_50 (Dense)            (None, 128)               16512
 batch_normalization_177 (Ba  (None, 128)              512
 tchNormalization)
 dropout_177 (Dropout)       (None, 128)               0
 AR_DN_51 (Dense)            (None, 128)               16512
 batch_normalization_178 (Ba  (None, 128)              512
 tchNormalization)
 dropout_178 (Dropout)       (None, 128)               0
 AR_DN_52 (Dense)            (None, 128)               16512
 batch_normalization_179 (Ba  (None, 128)              512
 tchNormalization)
 dropout_179 (Dropout)       (None, 128)               0
 AR_DN_53 (Dense)            (None, 128)               16512
 batch_normalization_180 (Ba  (None, 128)              512
 tchNormalization)
 dropout_180 (Dropout)       (None, 128)               0
 AR_DN_54 (Dense)            (None, 128)               16512
 batch_normalization_181 (Ba  (None, 128)              512
 tchNormalization)
 dropout_181 (Dropout)       (None, 128)               0
 AR_DN_55 (Dense)            (None, 128)               16512
 batch_normalization_182 (Ba  (None, 128)              512
 tchNormalization)
 dropout_182 (Dropout)       (None, 128)               0
 AR_DN_56 (Dense)            (None, 128)               16512
 batch_normalization_183 (Ba  (None, 128)              512
 tchNormalization)
 dropout_183 (Dropout)       (None, 128)               0
 AR_DN_57 (Dense)            (None, 128)               16512
 batch_normalization_184 (Ba  (None, 128)              512
 tchNormalization)
 dropout_184 (Dropout)       (None, 128)               0
 AR_DN_58 (Dense)            (None, 128)               16512
 batch_normalization_185 (Ba  (None, 128)              512
 tchNormalization)
 dropout_185 (Dropout)       (None, 128)               0
 AR_DN_59 (Dense)            (None, 128)               16512
 batch_normalization_186 (Ba  (None, 128)              512
 tchNormalization)
 dropout_186 (Dropout)       (None, 128)               0
 AR_DN_60 (Dense)            (None, 128)               16512
 batch_normalization_187 (Ba  (None, 128)              512
 tchNormalization)
 dropout_187 (Dropout)       (None, 128)               0
 AR_DN_61 (Dense)            (None, 128)               16512
 batch_normalization_188 (Ba  (None, 128)              512
 tchNormalization)
 dropout_188 (Dropout)       (None, 128)               0
 AR_DN_62 (Dense)            (None, 128)               16512
 batch_normalization_189 (Ba  (None, 128)              512
 tchNormalization)
 dropout_189 (Dropout)       (None, 128)               0
 AR_DN_63 (Dense)            (None, 128)               16512
 batch_normalization_190 (Ba  (None, 128)              512
 tchNormalization)
 dropout_190 (Dropout)       (None, 128)               0
 AR_DN_64 (Dense)            (None, 128)               16512
 batch_normalization_191 (Ba  (None, 128)              512
 tchNormalization)
 dropout_191 (Dropout)       (None, 128)               0
 areaDen (Dense)             (None, 2)                 258
=================================================================
Total params: 1,093,634
Trainable params: 1,077,250
Non-trainable params: 16,384
_________________________________________________________________
Epoch 1/100
The autoreload extension is already loaded. To reload it, use:
  %reload_ext autoreload
Exception in thread SystemMonitor:
Traceback (most recent call last):
  File "/home/dahala/miniconda3/envs/mlashok/lib/python3.10/threading.py", line 1016, in _bootstrap_inner
…
